wear/src/main/assets/cat_model.tflite (tflite, 4828 bytes, 4 tensors)

sequential_120/dense_269/BiasAdd/ReadVariableOp f4 [33]
0	0x3e83a227	0.2570965
1	0xbd333fe5	-0.043762106
2	0x3e010ec5	0.1260329
3	0xbe125d44	-0.1429339
4	0x3e362fb0	0.17791629
5	0xbe78fa58	-0.24314249
6	0x3d3aa679	0.045568917
7	0xbd069597	-0.032857504
8	0x3e8354b3	0.25650558
9	0xbe1da035	-0.15393145
10	0xbe72c909	-0.23709501
11	0x3dff90c8	0.12478787
12	0x3ef2ac68	0.4739716
13	0xbe9b4e27	-0.30333063
14	0xbbf64fec	-0.0075168516
15	0x3e8c0d61	0.27353957
16	0x3eba7296	0.36415547
17	0xbdaea62e	-0.0852779
18	0x3f025dd0	0.50924397
19	0x3e842261	0.2580748
20	0x3cd0f68f	0.025508193
21	0x3e321aed	0.17393084
22	0x00000000	0.0
23	0xbd9e6de6	-0.07735805
24	0xbc733b55	-0.014845689
25	0x3e384fd2	0.17999199
26	0xbdea9891	-0.11454881
27	0x3dd5669b	0.10419961
28	0x3eef52cb	0.46742854
29	0xbd445598	-0.04793319
30	0x3bbafa22	0.0057060877
31	0x00000000	0.0
32	0x3e13cd88	0.14433873

sequential_120/dense_270/BiasAdd/ReadVariableOp f4 [3]
0	0xbd7466ed	-0.05966847
1	0x3de2c938	0.11073536
2	0xbde7951d	-0.11307738

sequential_120/dense_269/MatMul f4 [33, 24]
0	0xbe91e7b6	-0.28497094
1	0xbda15530	-0.07877576
2	0x3ea76f54	0.32702124
3	0x3df7fba6	0.12108545
4	0x3ea6d004	0.32580578
5	0xbe3ec164	-0.1862846
6	0x3e08ac69	0.1334702
7	0xbf493d1e	-0.7860888
8	0xbf5e29ce	-0.8678254
9	0xbe126d9c	-0.14299625
10	0x3eb4bc14	0.35299742
11	0x3dd0f535	0.102030195
12	0x3f094395	0.53618747
13	0xbd3aee49	-0.045637403
14	0xbd7a34c2	-0.06108547
15	0x3ea068b7	0.3132989
16	0xbe39070f	-0.18069099
17	0x3deb34bc	0.11484668
18	0x3ec6ad98	0.38804317
19	0xbedf9c4d	-0.43673936
20	0x3ebd0dbf	0.3692455
21	0x3df5cb85	0.12001709
22	0xbe53d80d	-0.20687886
23	0xbd96bef1	-0.07360638
24	0x3e819576	0.25309342
25	0xbeac23da	-0.33621103
26	0x3d4a889d	0.04944669
27	0x3cf026af	0.02931532
28	0xbeb6d98d	-0.35712853
29	0xbe261656	-0.16219458
30	0x3e3b31b4	0.18280679
31	0xbe8978fb	-0.26850113
32	0xbdd6974d	-0.10478077
33	0xbcc2432c	-0.02371367
34	0xbe86605c	-0.2624539
35	0xbe9eb8b3	-0.3100029
36	0x3e1c7d47	0.15282165
37	0xbe3f1123	-0.18658881
38	0x3e4d7556	0.20064291
39	0x3e38ce94	0.18047553
40	0x3c5b5627	0.01338724
41	0x3db9eda0	0.090785265
42	0xbe0a59a5	-0.13510759
43	0x3e3aba2e	0.18235084
44	0x3e2f530f	0.17121528
45	0xbd2b8545	-0.041875143
46	0xbeb385d2	-0.35063034
47	0x3dc4278e	0.09577857
48	0x3fad98df	1.3562278
49	0x3e4fc7df	0.20291089
50	0x3e8d88a2	0.27643305
51	0xbeb1a7c2	-0.34698302
52	0xbeb66328	-0.35622525
53	0xbdbc7cce	-0.09203492
54	0x3dcacb1a	0.0990202
55	0x3dd2cdda	0.10293169
56	0xbcacfe60	-0.02111739
57	0xbb903e96	-0.004401992
58	0xbea0fba1	-0.31441978
59	0xbd579a6d	-0.052637506
60	0x3e183e93	0.1486762
61	0x3de25ad1	0.11052478
62	0x3e4c8eb6	0.19976315
63	0x3eab340b	0.33438143
64	0x3e9a1184	0.30091488
65	0xbe95b570	-0.29239988
66	0x3ed49e06	0.41526812
67	0x3e055f50	0.1302464
68	0x3e166362	0.14686349
69	0xbe5556bd	-0.2083387
70	0x3e6b0831	0.22952344
71	0x3e75ff02	0.24023059
72	0x3f2f39a9	0.6844736
73	0x3cfb1b2f	0.03065261
74	0xbd794aec	-0.060862467
75	0xbeab14bb	-0.33414254
76	0xbdbf8b88	-0.09352785
77	0x3e811365	0.2521011
78	0x3f2f6393	0.68511313
79	0xbe666713	-0.22500257
80	0x3f39ffc0	0.7265587
81	0x3e52013c	0.20508283
82	0x3e05af00	0.13055038
83	0xbe13515f	-0.1438651
84	0xbfafe886	-1.3742836
85	0xbf09cc2b	-0.5382716
86	0xbfc1ac0f	-1.5130633
87	0x3fe0127b	1.750564
88	0x3d7cb8ee	0.0616998
89	0xbe2eaa59	-0.1705717
90	0x3f85d82a	1.0456593
91	0xbe94d2e5	-0.2906715
92	0x3f07ebbe	0.5309409
93	0x3e70ce38	0.23516166
94	0x3e80f78f	0.25188872
95	0xbf7170ed	-0.94312936
96	0xbe127f76	-0.14306435
97	0xbd39866b	-0.045294207
98	0x3dff95a0	0.124797106
99	0x3df849ab	0.12123426
100	0xbe52bbe5	-0.20579489
101	0x3c9c3650	0.019068867
102	0x3fac9101	1.3481752
103	0x3eafbb1d	0.34322444
104	0xbf3b340e	-0.73126304
105	0xbf4d3230	-0.80154705
106	0xbe5bd727	-0.21468793
107	0x3e3a4811	0.18191554
108	0x3e096d6a	0.13420644
109	0xbe4bf3fa	-0.19917288
110	0x3f12b2e2	0.57304204
111	0xbe933169	-0.28748634
112	0x3c38da26	0.011282479
113	0xba658000	-0.000875473
114	0x3ec94df2	0.3931728
115	0xbe2f30c4	-0.17108446
116	0xbe668c7c	-0.22514528
117	0xbea914b0	-0.33023596
118	0xbe634a1e	-0.22196242
119	0xbc933939	-0.017971622
120	0x3ebf551e	0.37369627
121	0x3e5a808b	0.21338098
122	0xbe09ef53	-0.13470201
123	0x3d8f6e5c	0.07003471
124	0x3ebdca59	0.37068442
125	0x3e541142	0.20709708
126	0xbf289086	-0.65845525
127	0x3e948261	0.2900572
128	0xbf50c381	-0.81548315
129	0x3d3988ce	0.045296483
130	0xbeb8cc06	-0.36093158
131	0x3ecd89af	0.40144107
132	0xbfeced70	-1.850996
133	0x3e270090	0.16308808
134	0xbe60a2d6	-0.21937117
135	0x3f179da1	0.592249
136	0x3f21f39d	0.6326235
137	0x3c4b8d60	0.012423843
138	0x3f267e79	0.6503673
139	0xbdc085c5	-0.094005145
140	0xbdffe9b9	-0.12495751
141	0x3e915e32	0.28392178
142	0xbf1ebf13	-0.62010306
143	0x3e8de01d	0.27710047
144	0x40108e03	2.2586677
145	0x3e18cea2	0.14922574
146	0x3e28ba3f	0.16477297
147	0xbf8100b1	-1.0078336
148	0x3dba1195	0.09085385
149	0xbe1ff0e9	-0.15619244
150	0xbf11904f	-0.5686082
151	0xbea2e5a7	-0.31815836
152	0x3e91a2f5	0.2844464
153	0x3ef4f8ec	0.47846162
154	0x3eb5b5ae	0.35490173
155	0xbc9fdb34	-0.019513704
156	0xbe339c0f	-0.1754
157	0x3d7c174a	0.061545648
158	0x3dafba49	0.08580453
159	0xbf9d6584	-1.2296605
160	0x3e91e66a	0.28496104
161	0xbe078839	-0.13235559
162	0x3f1c5d6d	0.61080056
163	0xbf9005c3	-1.1251758
164	0x3ddc8d06	0.107690856
165	0x3deb4d58	0.114893615
166	0x3e6e5c1c	0.23277324
167	0xbe0ac2ac	-0.13550824
168	0xbec9ea71	-0.39436677
169	0x3d66371e	0.056204908
170	0x3cf6f3da	0.030145574
171	0xbdd72135	-0.105043806
172	0xbde543ff	-0.1119461
173	0xbe448fce	-0.19195482
174	0x3f966f7a	1.175277
175	0x3de5bfe9	0.112182446
176	0xbf4072f7	-0.7517542
177	0xbe0f0370	-0.13966155
178	0xbae97c98	-0.0017813621
179	0x3e679e46	0.2261897
180	0x3e40d8fe	0.18832776
181	0xbe92c7c9	-0.2866805
182	0x3ed80eb5	0.4219872
183	0xbea89552	-0.32926422
184	0x3e172d95	0.14763482
185	0x3ea2780b	0.3173221
186	0x3f1e97a8	0.6195016
187	0xbeaf68a7	-0.3425953
188	0x3dfcd2f2	0.12344922
189	0xbe4fd49d	-0.2029595
190	0xbe70f2d7	-0.23530136
191	0x3ebe4da1	0.371686
192	0xbe952147	-0.2912695
193	0xbebaa3fe	-0.3645324
194	0xbec90176	-0.39258927
195	0x3ef38e28	0.47569394
196	0xbed0b924	-0.4076625
197	0xbe9b47cd	-0.30328217
198	0x3f55c1b2	0.8349868
199	0x3ed9cffd	0.42541495
200	0xbd1a1983	-0.037621986
201	0xbe891da9	-0.2678044
202	0x3ec91ce4	0.39279854
203	0xbe98b93a	-0.29828817
204	0x3e8f260e	0.2795872
205	0xbe519ab5	-0.20469172
206	0x3ecf0560	0.40433788
207	0xbed29b3b	-0.41134056
208	0x3e04b2cf	0.12958835
209	0x3a209400	0.00061255693
210	0xbe882776	-0.26592606
211	0xbd07e174	-0.033173993
212	0x3e0b4bb3	0.13603096
213	0x3f1d7acf	0.61515516
214	0xbdfb98c6	-0.122849986
215	0xbc1ee442	-0.009697976
216	0xbe5d023f	-0.21582888
217	0x3ea3e16f	0.3200793
218	0xbe1f42a8	-0.15552771
219	0x3d95f393	0.07321849
220	0xbda7af81	-0.081877716
221	0xbe42da4b	-0.19028585
222	0xbdfa2f88	-0.12216097
223	0x3e1775de	0.14791057
224	0x3e96c432	0.2944656
225	0x3f131f55	0.57469684
226	0x3d323e3c	0.043516383
227	0xbe161dec	-0.14659852
228	0x3dd8021f	0.105472796
229	0x3e456133	0.1927536
230	0xbc65e528	-0.014031686
231	0xbe9ef134	-0.31043398
232	0xbda7705d	-0.081757285
233	0xbbf21340	-0.0073875487
234	0x3842e540	4.646671e-05
235	0xbe8ee63e	-0.27910036
236	0xbf768dce	-0.96310127
237	0xbe99149e	-0.29898542
238	0x3da11652	0.078655854
239	0xbe8d3eec	-0.27587068
240	0xbe4f8d41	-0.20268728
241	0xbe8e972f	-0.2784972
242	0xbed961c5	-0.42457405
243	0xbd6543fa	-0.05597303
244	0xbdc3c8ba	-0.0955977
245	0xbe93c979	-0.2886465
246	0xbe66fc10	-0.22557092
247	0x3e1791b8	0.14801681
248	0xbe3bfcf9	-0.1835822
249	0x3e627ea4	0.22118622
250	0xbda5b441	-0.08091021
251	0xbeb4c446	-0.35305995
252	0xbebb0bad	-0.36532345
253	0xbce41c4f	-0.02784553
254	0xbead93ca	-0.33901817
255	0xbea3d76d	-0.32000294

sequential_120/dense_270/MatMul f4 [3, 33]
0	0x3ee49acc	0.4464935
1	0x3e655b5f	0.22398137
2	0xbf2ced67	-0.6754975
3	0x3ca7c270	0.020478457
4	0xbf5aacba	-0.8541981
5	0xc0ab1957	-5.3468432
6	0xbf06cd88	-0.52657366
7	0xbf78e9c5	-0.97231704
8	0x3eaf1e7a	0.3420294
9	0x3f78d2a7	0.9719643
10	0xbea90d03	-0.3301774
11	0xbea1afd1	-0.3157945
12	0x3ecc9dbe	0.39964098
13	0x406ec2c8	3.7306385
14	0x3e4bf1b1	0.19916417
15	0xbf31bdf1	-0.6943045
16	0x3fed67d2	1.8547308
17	0x3f02a74f	0.5103654
18	0x4026d227	2.6065767
19	0xbfa47853	-1.284922
20	0xbf98ba3b	-1.1931833
21	0x3f0d76d5	0.5525945
22	0x3b94ccc0	0.0045410097
23	0xbeda84e7	-0.4267952
24	0x3e33ea22	0.17569783
25	0xbd826593	-0.0636703
26	0xbf27e3a4	-0.6558173
27	0xbf191c1a	-0.59808505
28	0x405c14eb	3.4387767
29	0x3f017322	0.50566304
30	0xbf30f483	-0.69123095
31	0xbdcc5f38	-0.09979099
32	0xbe446aae	-0.1918132
33	0x3da96ae3	0.0827234
34	0x3e2fe70a	0.17177978
35	0x3ede0e32	0.43370205
36	0x3f520215	0.82034427
37	0xbea6d6dc	-0.325858
38	0x3ed960cb	0.4245666
39	0xbf0984bb	-0.53718156
40	0xbea8e3ed	-0.32986394
41	0xbf364bb8	-0.7120929
42	0x3dbd4cfe	0.09243201
43	0x3c868ac9	0.0164236
44	0x3f285d21	0.65767103
45	0x3ec1ef05	0.3787767
46	0xc06bf27e	-3.6866755
47	0xbebfbdbe	-0.3744945
48	0xbdc00d97	-0.09377592
49	0xbff496d5	-1.910853
50	0xbf8eeedc	-1.1166644
51	0xc01785d2	-2.3675427
52	0x3e78e51d	0.2430615
53	0x3f93ae4e	1.1537569
54	0xbf365518	-0.7122359
55	0xbd801ed4	-0.0625588
56	0x3f75d661	0.9603024
57	0xbe6506fa	-0.22365943
58	0xbf3ba287	-0.7329487
59	0x3f2ca95f	0.6744594
60	0x3c6f4310	0.014603391
61	0xc053399d	-3.3003914
62	0x3beeb9b6	0.007285322
63	0x3f59f342	0.85136807
64	0x3dd13f98	0.10217208
65	0x3f825267	1.0181397
66	0xbf8aa429	-1.0831348
67	0x3d51cd95	0.05122145
68	0x3d2dbb68	0.042415053
69	0xc042ff7d	-3.0468438
70	0x3f1cf96d	0.61318094
71	0xbf5f189b	-0.8714692
72	0x3f47a46b	0.77985257
73	0x3f72b52a	0.94807684
74	0x3f8dab0f	1.1067828
75	0x3bab2643	0.005223067
76	0x3c90bdbf	0.017668603
77	0x3dbf1c25	0.0933154
78	0xbf3b7406	-0.7322391
79	0xc0dc0ef9	-6.8768277
80	0xbe630424	-0.22169548
81	0x3e5bb7d0	0.21456838
82	0xc14c3dc5	-12.76508
83	0x3f278e0f	0.6545114
84	0xc16763c2	-14.461855
85	0x3ddfc01e	0.10925315
86	0xbf74e802	-0.95666516
87	0xbbf15d5d	-0.007365866
88	0x3d6566b8	0.056006163
89	0xbf742135	-0.9536317
90	0x3e8bcbe2	0.27303988
91	0x3f492c74	0.78583455
92	0xbef3d708	-0.47624993
93	0xbe0abb3f	-0.13547991
94	0xc12dcada	-10.862024
95	0xc035875a	-2.8363862
96	0xbc55ffe8	-0.013061501
97	0x3e3aeb64	0.18253857
98	0xbfe8f989	-1.8201152
